study_model.pth (torch, 2565 bytes, 3 tensors)

0.weight f4 [8, 2]
0	0x3f3b1da1	0.73092085
1	0xbff79a93	-1.9344047
2	0x3f06d580	0.52669525
3	0x3e98d7f8	0.2985227
4	0x3e9aa73d	0.30205718
5	0x3e2fd5f0	0.17171454
6	0x3f33b84b	0.70203084
7	0x3eba459d	0.36381236
8	0x3f684af9	0.907394
9	0xbfb10065	-1.3828245
10	0xbec327f1	-0.3811641
11	0x3d628082	0.055298336
12	0xbc99908a	-0.01874568
13	0x3f5cf476	0.8631052
14	0x3e454fa8	0.19268668
15	0x3efaccea	0.48984462

0.bias f4 [8]
0	0x3e51c078	0.20483577
1	0x3ecace23	0.39610395
2	0xbf00f28d	-0.50370103
3	0xbeaff5d5	-0.34367242
4	0xbb4bea5d	-0.0031115033
5	0xbebdcf0f	-0.37072036
6	0x3e0b0c21	0.13578846
7	0xbf5848e6	-0.84486234

2.weight f4 [1, 8]
0	0x3f1e0128	0.61720514
1	0x3e5c22b6	0.21497616
2	0xbd7c5800	-0.06160736
3	0x3eb4a6b9	0.3528345
4	0x3f0ffd23	0.5624563
5	0x3e173a7b	0.14768402
6	0xbe4cf70d	-0.20016117
7	0xbe4b7bc3	-0.1987143
